…
I20231215 20:18:59 root radiance_field.py:289] Set aabb from tensor([-1., -1., -1.,  1.,  1.,  1.]) to tensor([-38.4616, -40.8799,  -2.9896, 161.4537,  40.5111,  20.0000])
I20231215 20:18:59 root train_emernerf.py:470] PropNetEstimator: [DensityField(
  (xyz_encoder): HashEncoder(
    (tcnn_encoding): Encoding(n_input_dims=3, n_output_dims=8, seed=1337, dtype=torch.float32, hyperparams={'base_resolution': 16, 'hash': 'CoherentPrime', 'interpolation': 'Linear', 'log2_hashmap_size': 20, 'n_features_per_level': 1, 'n_levels': 8, 'otype': 'Grid', 'per_level_scale': 1.640670657157898, 'type': 'Hash'})
  )
  (base_mlp): Sequential(
    (0): Linear(in_features=8, out_features=64, bias=True)
    (1): ReLU()
    (2): Linear(in_features=64, out_features=1, bias=True)
  )
), DensityField(
  (xyz_encoder): HashEncoder(
    (tcnn_encoding): Encoding(n_input_dims=3, n_output_dims=8, seed=1337, dtype=torch.float32, hyperparams={'base_resolution': 16, 'hash': 'CoherentPrime', 'interpolation': 'Linear', 'log2_hashmap_size': 20, 'n_features_per_level': 1, 'n_levels': 8, 'otype': 'Grid', 'per_level_scale': 2.0, 'type': 'Hash'})
  )
  (base_mlp): Sequential(
    (0): Linear(in_features=8, out_features=64, bias=True)
    (1): ReLU()
    (2): Linear(in_features=64, out_features=1, bias=True)
  )
)]
I20231215 20:18:59 root train_emernerf.py:471] Model: RadianceField(
  (xyz_encoder): HashEncoder(
    (tcnn_encoding): Encoding(n_input_dims=3, n_output_dims=40, seed=1337, dtype=torch.float32, hyperparams={'base_resolution': 16, 'hash': 'CoherentPrime', 'interpolation': 'Linear', 'log2_hashmap_size': 20, 'n_features_per_level': 4, 'n_levels': 10, 'otype': 'Grid', 'per_level_scale': 2.0, 'type': 'Hash'})
  )
  (base_mlp): Sequential(
    (0): Linear(in_features=40, out_features=64, bias=True)
    (1): ReLU()
    (2): Linear(in_features=64, out_features=64, bias=True)
  )
  (dynamic_xyz_encoder): HashEncoder(
    (tcnn_encoding): Encoding(n_input_dims=4, n_output_dims=40, seed=1337, dtype=torch.float32, hyperparams={'base_resolution': 32, 'hash': 'CoherentPrime', 'interpolation': 'Linear', 'log2_hashmap_size': 18, 'n_features_per_level': 4, 'n_levels': 10, 'otype': 'Grid', 'per_level_scale': 1.8517494201660156, 'type': 'Hash'})
  )
  (dynamic_base_mlp): Sequential(
    (0): Linear(in_features=40, out_features=64, bias=True)
    (1): ReLU()
    (2): Linear(in_features=64, out_features=64, bias=True)
  )
  (appearance_embedding): Embedding(955, 16)
  (direction_encoding): SinusoidalEncoder()
  (rgb_head): MLP(
    (layers): ModuleList(
      (0): Linear(in_features=113, out_features=64, bias=True)
      (1): Linear(in_features=177, out_features=64, bias=True)
      (2): Linear(in_features=64, out_features=3, bias=True)
    )
  )
  (shadow_head): Sequential(
    (0): Linear(in_features=64, out_features=64, bias=True)
    (1): ReLU()
    (2): Linear(in_features=64, out_features=1, bias=True)
    (3): Sigmoid()
  )
  (sky_head): MLP(
    (layers): ModuleList(
      (0): Linear(in_features=49, out_features=64, bias=True)
      (1): Linear(in_features=113, out_features=64, bias=True)
      (2): Linear(in_features=64, out_features=3, bias=True)
    )
  )
  (semantic_head): ModuleList(
    (0-149): 150 x MLP(
      (layers): ModuleList(
        (0): Linear(in_features=64, out_features=1, bias=True)
      )
    )
  )
)
I20231215 20:18:59 root train_emernerf.py:492] Will start training for 25000 iterations from scratch
